…
|    5     76398      C   python                                      7343MiB |
|    6     76398      C   python                                      8111MiB |
|    7     76398      C   python                                      1185MiB |
+-----------------------------------------------------------------------------+

INFO 2020-12-09 22:28:18,260 trainer_main.py: 103: Model is:
 Classy <class 'vissl.models.base_ssl_model.BaseSSLMultiInputOutputModel'>:
BaseSSLMultiInputOutputModel(
  (_heads): ModuleDict()
  (trunk): RegNet(
    (_feature_blocks): ModuleDict(
      (conv1): SimpleStemIN(
        (stem): Sequential(
          (0): Conv2d(3, 32, kernel_size=(3, 3), stride=(2, 2), padding=(1, 1), bias=False)
          (1): BatchNorm2d(32, eps=1e-05, momentum=0.1, affine=True, track_running_stats=True)
          (2): ReLU(inplace=True)
        )
      )
      (res2): AnyStage(
        (block1-0): ResBottleneckBlock(
          (proj): Conv2d(32, 2020, kernel_size=(1, 1), stride=(2, 2), bias=False)
          (bn): BatchNorm2d(2020, eps=1e-05, momentum=0.1, affine=True, track_running_stats=True)
          (f): BottleneckTransform(
            (a): Sequential(
              (0): Conv2d(32, 2020, kernel_size=(1, 1), stride=(1, 1), bias=False)
              (1): BatchNorm2d(2020, eps=1e-05, momentum=0.1, affine=True, track_running_stats=True)
              (2): ReLU(inplace=True)
            )
            (b): Sequential(
              (0): Conv2d(2020, 2020, kernel_size=(3, 3), stride=(2, 2), padding=(1, 1), groups=2, bias=False)
              (1): BatchNorm2d(2020, eps=1e-05, momentum=0.1, affine=True, track_running_stats=True)
              (2): ReLU(inplace=True)
            )
            (se): SqueezeAndExcitationLayer(
              (avgpool): AdaptiveAvgPool2d(output_size=(1, 1))
              (excitation): Sequential(
                (0): Conv2d(2020, 8, kernel_size=(1, 1), stride=(1, 1))
                (1): ReLU()
                (2): Conv2d(8, 2020, kernel_size=(1, 1), stride=(1, 1))
                (3): Sigmoid()
              )
            )
            (c): Conv2d(2020, 2020, kernel_size=(1, 1), stride=(1, 1), bias=False)
            (final_bn): BatchNorm2d(2020, eps=1e-05, momentum=0.1, affine=True, track_running_stats=True)
          )
          (relu): ReLU(inplace=True)
        )
        (block1-1): ResBottleneckBlock(
          (f): BottleneckTransform(
            (a): Sequential(
              (0): Conv2d(2020, 2020, kernel_size=(1, 1), stride=(1, 1), bias=False)
              (1): BatchNorm2d(2020, eps=1e-05, momentum=0.1, affine=True, track_running_stats=True)
              (2): ReLU(inplace=True)
            )
            (b): Sequential(
              (0): Conv2d(2020, 2020, kernel_size=(3, 3), stride=(1, 1), padding=(1, 1), groups=2, bias=False)
              (1): BatchNorm2d(2020, eps=1e-05, momentum=0.1, affine=True, track_running_stats=True)
              (2): ReLU(inplace=True)
            )
            (se): SqueezeAndExcitationLayer(
              (avgpool): AdaptiveAvgPool2d(output_size=(1, 1))
              (excitation): Sequential(
                (0): Conv2d(2020, 505, kernel_size=(1, 1), stride=(1, 1))
                (1): ReLU()
                (2): Conv2d(505, 2020, kernel_size=(1, 1), stride=(1, 1))
                (3): Sigmoid()
              )
            )
            (c): Conv2d(2020, 2020, kernel_size=(1, 1), stride=(1, 1), bias=False)
            (final_bn): BatchNorm2d(2020, eps=1e-05, momentum=0.1, affine=True, track_running_stats=True)
          )
          (relu): ReLU(inplace=True)
        )
      )
      (res3): AnyStage(
        (block2-0): ResBottleneckBlock(
          (proj): Conv2d(2020, 4040, kernel_size=(1, 1), stride=(2, 2), bias=False)
          (bn): BatchNorm2d(4040, eps=1e-05, momentum=0.1, affine=True, track_running_stats=True)
          (f): BottleneckTransform(
            (a): Sequential(
              (0): Conv2d(2020, 4040, kernel_size=(1, 1), stride=(1, 1), bias=False)
              (1): BatchNorm2d(4040, eps=1e-05, momentum=0.1, affine=True, track_running_stats=True)
              (2): ReLU(inplace=True)
            )
            (b): Sequential(
              (0): Conv2d(4040, 4040, kernel_size=(3, 3), stride=(2, 2), padding=(1, 1), groups=4, bias=False)
              (1): BatchNorm2d(4040, eps=1e-05, momentum=0.1, affine=True, track_running_stats=True)
              (2): ReLU(inplace=True)
            )
            (se): SqueezeAndExcitationLayer(
              (avgpool): AdaptiveAvgPool2d(output_size=(1, 1))
              (excitation): Sequential(
                (0): Conv2d(4040, 505, kernel_size=(1, 1), stride=(1, 1))
                (1): ReLU()
                (2): Conv2d(505, 4040, kernel_size=(1, 1), stride=(1, 1))
                (3): Sigmoid()
              )
            )
            (c): Conv2d(4040, 4040, kernel_size=(1, 1), stride=(1, 1), bias=False)
            (final_bn): BatchNorm2d(4040, eps=1e-05, momentum=0.1, affine=True, track_running_stats=True)
          )
          (relu): ReLU(inplace=True)
        )
        (block2-1): ResBottleneckBlock(
          (f): BottleneckTransform(
            (a): Sequential(
              (0): Conv2d(4040, 4040, kernel_size=(1, 1), stride=(1, 1), bias=False)
              (1): BatchNorm2d(4040, eps=1e-05, momentum=0.1, affine=True, track_running_stats=True)
              (2): ReLU(inplace=True)
            )
            (b): Sequential(
              (0): Conv2d(4040, 4040, kernel_size=(3, 3), stride=(1, 1), padding=(1, 1), groups=4, bias=False)
              (1): BatchNorm2d(4040, eps=1e-05, momentum=0.1, affine=True, track_running_stats=True)
              (2): ReLU(inplace=True)
            )
            (se): SqueezeAndExcitationLayer(
              (avgpool): AdaptiveAvgPool2d(output_size=(1, 1))
              (excitation): Sequential(
                (0): Conv2d(4040, 1010, kernel_size=(1, 1), stride=(1, 1))
                (1): ReLU()
                (2): Conv2d(1010, 4040, kernel_size=(1, 1), stride=(1, 1))
                (3): Sigmoid()
              )
            )
            (c): Conv2d(4040, 4040, kernel_size=(1, 1), stride=(1, 1), bias=False)
            (final_bn): BatchNorm2d(4040, eps=1e-05, momentum=0.1, affine=True, track_running_stats=True)
          )
          (relu): ReLU(inplace=True)
        )
        (block2-2): ResBottleneckBlock(
          (f): BottleneckTransform(
            (a): Sequential(
              (0): Conv2d(4040, 4040, kernel_size=(1, 1), stride=(1, 1), bias=False)
              (1): BatchNorm2d(4040, eps=1e-05, momentum=0.1, affine=True, track_running_stats=True)
              (2): ReLU(inplace=True)
            )
            (b): Sequential(
              (0): Conv2d(4040, 4040, kernel_size=(3, 3), stride=(1, 1), padding=(1, 1), groups=4, bias=False)
              (1): BatchNorm2d(4040, eps=1e-05, momentum=0.1, affine=True, track_running_stats=True)
              (2): ReLU(inplace=True)
            )
            (se): SqueezeAndExcitationLayer(
              (avgpool): AdaptiveAvgPool2d(output_size=(1, 1))
              (excitation): Sequential(
                (0): Conv2d(4040, 1010, kernel_size=(1, 1), stride=(1, 1))
                (1): ReLU()
                (2): Conv2d(1010, 4040, kernel_size=(1, 1), stride=(1, 1))
                (3): Sigmoid()
              )
            )
            (c): Conv2d(4040, 4040, kernel_size=(1, 1), stride=(1, 1), bias=False)
            (final_bn): BatchNorm2d(4040, eps=1e-05, momentum=0.1, affine=True, track_running_stats=True)
          )
          (relu): ReLU(inplace=True)
        )
        (block2-3): ResBottleneckBlock(
          (f): BottleneckTransform(
            (a): Sequential(
              (0): Conv2d(4040, 4040, kernel_size=(1, 1), stride=(1, 1), bias=False)
              (1): BatchNorm2d(4040, eps=1e-05, momentum=0.1, affine=True, track_running_stats=True)
              (2): ReLU(inplace=True)
            )
            (b): Sequential(
              (0): Conv2d(4040, 4040, kernel_size=(3, 3), stride=(1, 1), padding=(1, 1), groups=4, bias=False)
              (1): BatchNorm2d(4040, eps=1e-05, momentum=0.1, affine=True, track_running_stats=True)
              (2): ReLU(inplace=True)
            )
            (se): SqueezeAndExcitationLayer(
              (avgpool): AdaptiveAvgPool2d(output_size=(1, 1))
              (excitation): Sequential(
                (0): Conv2d(4040, 1010, kernel_size=(1, 1), stride=(1, 1))
                (1): ReLU()
                (2): Conv2d(1010, 4040, kernel_size=(1, 1), stride=(1, 1))
                (3): Sigmoid()
              )
            )
            (c): Conv2d(4040, 4040, kernel_size=(1, 1), stride=(1, 1), bias=False)
            (final_bn): BatchNorm2d(4040, eps=1e-05, momentum=0.1, affine=True, track_running_stats=True)
          )
          (relu): ReLU(inplace=True)
        )
        (block2-4): ResBottleneckBlock(
          (f): BottleneckTransform(
            (a): Sequential(
              (0): Conv2d(4040, 4040, kernel_size=(1, 1), stride=(1, 1), bias=False)
              (1): BatchNorm2d(4040, eps=1e-05, momentum=0.1, affine=True, track_running_stats=True)
              (2): ReLU(inplace=True)
            )
            (b): Sequential(
              (0): Conv2d(4040, 4040, kernel_size=(3, 3), stride=(1, 1), padding=(1, 1), groups=4, bias=False)
              (1): BatchNorm2d(4040, eps=1e-05, momentum=0.1, affine=True, track_running_stats=True)
              (2): ReLU(inplace=True)
            )
            (se): SqueezeAndExcitationLayer(
              (avgpool): AdaptiveAvgPool2d(output_size=(1, 1))
              (excitation): Sequential(
                (0): Conv2d(4040, 1010, kernel_size=(1, 1), stride=(1, 1))
                (1): ReLU()
                (2): Conv2d(1010, 4040, kernel_size=(1, 1), stride=(1, 1))
                (3): Sigmoid()
              )
            )
            (c): Conv2d(4040, 4040, kernel_size=(1, 1), stride=(1, 1), bias=False)
            (final_bn): BatchNorm2d(4040, eps=1e-05, momentum=0.1, affine=True, track_running_stats=True)
          )
          (relu): ReLU(inplace=True)
        )
        (block2-5): ResBottleneckBlock(
          (f): BottleneckTransform(
            (a): Sequential(
              (0): Conv2d(4040, 4040, kernel_size=(1, 1), stride=(1, 1), bias=False)
              (1): BatchNorm2d(4040, eps=1e-05, momentum=0.1, affine=True, track_running_stats=True)
              (2): ReLU(inplace=True)
            )
            (b): Sequential(
              (0): Conv2d(4040, 4040, kernel_size=(3, 3), stride=(1, 1), padding=(1, 1), groups=4, bias=False)
              (1): BatchNorm2d(4040, eps=1e-05, momentum=0.1, affine=True, track_running_stats=True)
              (2): ReLU(inplace=True)
            )
            (se): SqueezeAndExcitationLayer(
              (avgpool): AdaptiveAvgPool2d(output_size=(1, 1))
              (excitation): Sequential(
                (0): Conv2d(4040, 1010, kernel_size=(1, 1), stride=(1, 1))
                (1): ReLU()
                (2): Conv2d(1010, 4040, kernel_size=(1, 1), stride=(1, 1))
                (3): Sigmoid()
              )
            )
            (c): Conv2d(4040, 4040, kernel_size=(1, 1), stride=(1, 1), bias=False)
            (final_bn): BatchNorm2d(4040, eps=1e-05, momentum=0.1, affine=True, track_running_stats=True)
          )
          (relu): ReLU(inplace=True)
        )
        (block2-6): ResBottleneckBlock(
          (f): BottleneckTransform(
            (a): Sequential(
              (0): Conv2d(4040, 4040, kernel_size=(1, 1), stride=(1, 1), bias=False)
              (1): BatchNorm2d(4040, eps=1e-05, momentum=0.1, affine=True, track_running_stats=True)
              (2): ReLU(inplace=True)
            )
            (b): Sequential(
              (0): Conv2d(4040, 4040, kernel_size=(3, 3), stride=(1, 1), padding=(1, 1), groups=4, bias=False)
              (1): BatchNorm2d(4040, eps=1e-05, momentum=0.1, affine=True, track_running_stats=True)
              (2): ReLU(inplace=True)
            )
            (se): SqueezeAndExcitationLayer(
              (avgpool): AdaptiveAvgPool2d(output_size=(1, 1))
              (excitation): Sequential(
                (0): Conv2d(4040, 1010, kernel_size=(1, 1), stride=(1, 1))
                (1): ReLU()
                (2): Conv2d(1010, 4040, kernel_size=(1, 1), stride=(1, 1))
                (3): Sigmoid()
              )
            )
            (c): Conv2d(4040, 4040, kernel_size=(1, 1), stride=(1, 1), bias=False)
            (final_bn): BatchNorm2d(4040, eps=1e-05, momentum=0.1, affine=True, track_running_stats=True)
          )
          (relu): ReLU(inplace=True)
        )
      )
      (res4): AnyStage(
        (block3-0): ResBottleneckBlock(
          (proj): Conv2d(4040, 11110, kernel_size=(1, 1), stride=(2, 2), bias=False)
          (bn): BatchNorm2d(11110, eps=1e-05, momentum=0.1, affine=True, track_running_stats=True)
          (f): BottleneckTransform(
            (a): Sequential(
              (0): Conv2d(4040, 11110, kernel_size=(1, 1), stride=(1, 1), bias=False)
              (1): BatchNorm2d(11110, eps=1e-05, momentum=0.1, affine=True, track_running_stats=True)
              (2): ReLU(inplace=True)
            )
            (b): Sequential(
              (0): Conv2d(11110, 11110, kernel_size=(3, 3), stride=(2, 2), padding=(1, 1), groups=11, bias=False)
              (1): BatchNorm2d(11110, eps=1e-05, momentum=0.1, affine=True, track_running_stats=True)
              (2): ReLU(inplace=True)
            )
            (se): SqueezeAndExcitationLayer(
              (avgpool): AdaptiveAvgPool2d(output_size=(1, 1))
              (excitation): Sequential(
                (0): Conv2d(11110, 1010, kernel_size=(1, 1), stride=(1, 1))
                (1): ReLU()
                (2): Conv2d(1010, 11110, kernel_size=(1, 1), stride=(1, 1))
                (3): Sigmoid()
              )
            )
            (c): Conv2d(11110, 11110, kernel_size=(1, 1), stride=(1, 1), bias=False)
            (final_bn): BatchNorm2d(11110, eps=1e-05, momentum=0.1, affine=True, track_running_stats=True)
          )
          (relu): ReLU(inplace=True)
        )
        (block3-1): ResBottleneckBlock(
          (f): BottleneckTransform(
            (a): Sequential(
              (0): Conv2d(11110, 11110, kernel_size=(1, 1), stride=(1, 1), bias=False)
              (1): BatchNorm2d(11110, eps=1e-05, momentum=0.1, affine=True, track_running_stats=True)
              (2): ReLU(inplace=True)
            )
            (b): Sequential(
              (0): Conv2d(11110, 11110, kernel_size=(3, 3), stride=(1, 1), padding=(1, 1), groups=11, bias=False)
              (1): BatchNorm2d(11110, eps=1e-05, momentum=0.1, affine=True, track_running_stats=True)
              (2): ReLU(inplace=True)
            )
            (se): SqueezeAndExcitationLayer(
              (avgpool): AdaptiveAvgPool2d(output_size=(1, 1))
              (excitation): Sequential(
                (0): Conv2d(11110, 2778, kernel_size=(1, 1), stride=(1, 1))
                (1): ReLU()
                (2): Conv2d(2778, 11110, kernel_size=(1, 1), stride=(1, 1))
                (3): Sigmoid()
              )
            )
            (c): Conv2d(11110, 11110, kernel_size=(1, 1), stride=(1, 1), bias=False)
            (final_bn): BatchNorm2d(11110, eps=1e-05, momentum=0.1, affine=True, track_running_stats=True)
          )
          (relu): ReLU(inplace=True)
        )
        (block3-2): ResBottleneckBlock(
          (f): BottleneckTransform(
            (a): Sequential(
              (0): Conv2d(11110, 11110, kernel_size=(1, 1), stride=(1, 1), bias=False)
              (1): BatchNorm2d(11110, eps=1e-05, momentum=0.1, affine=True, track_running_stats=True)
              (2): ReLU(inplace=True)
            )
            (b): Sequential(
              (0): Conv2d(11110, 11110, kernel_size=(3, 3), stride=(1, 1), padding=(1, 1), groups=11, bias=False)
              (1): BatchNorm2d(11110, eps=1e-05, momentum=0.1, affine=True, track_running_stats=True)
              (2): ReLU(inplace=True)
            )
            (se): SqueezeAndExcitationLayer(
              (avgpool): AdaptiveAvgPool2d(output_size=(1, 1))
              (excitation): Sequential(
                (0): Conv2d(11110, 2778, kernel_size=(1, 1), stride=(1, 1))
                (1): ReLU()
                (2): Conv2d(2778, 11110, kernel_size=(1, 1), stride=(1, 1))
                (3): Sigmoid()
              )
            )
            (c): Conv2d(11110, 11110, kernel_size=(1, 1), stride=(1, 1), bias=False)
            (final_bn): BatchNorm2d(11110, eps=1e-05, momentum=0.1, affine=True, track_running_stats=True)
          )
          (relu): ReLU(inplace=True)
        )
        (block3-3): ResBottleneckBlock(
          (f): BottleneckTransform(
            (a): Sequential(
              (0): Conv2d(11110, 11110, kernel_size=(1, 1), stride=(1, 1), bias=False)
              (1): BatchNorm2d(11110, eps=1e-05, momentum=0.1, affine=True, track_running_stats=True)
              (2): ReLU(inplace=True)
            )
            (b): Sequential(
              (0): Conv2d(11110, 11110, kernel_size=(3, 3), stride=(1, 1), padding=(1, 1), groups=11, bias=False)
              (1): BatchNorm2d(11110, eps=1e-05, momentum=0.1, affine=True, track_running_stats=True)
              (2): ReLU(inplace=True)
            )
            (se): SqueezeAndExcitationLayer(
              (avgpool): AdaptiveAvgPool2d(output_size=(1, 1))
              (excitation): Sequential(
                (0): Conv2d(11110, 2778, kernel_size=(1, 1), stride=(1, 1))
                (1): ReLU()
                (2): Conv2d(2778, 11110, kernel_size=(1, 1), stride=(1, 1))
                (3): Sigmoid()
              )
            )
            (c): Conv2d(11110, 11110, kernel_size=(1, 1), stride=(1, 1), bias=False)
            (final_bn): BatchNorm2d(11110, eps=1e-05, momentum=0.1, affine=True, track_running_stats=True)
          )
          (relu): ReLU(inplace=True)
        )
        (block3-4): ResBottleneckBlock(
          (f): BottleneckTransform(
            (a): Sequential(
              (0): Conv2d(11110, 11110, kernel_size=(1, 1), stride=(1, 1), bias=False)
              (1): BatchNorm2d(11110, eps=1e-05, momentum=0.1, affine=True, track_running_stats=True)
              (2): ReLU(inplace=True)
            )
            (b): Sequential(
              (0): Conv2d(11110, 11110, kernel_size=(3, 3), stride=(1, 1), padding=(1, 1), groups=11, bias=False)
              (1): BatchNorm2d(11110, eps=1e-05, momentum=0.1, affine=True, track_running_stats=True)
              (2): ReLU(inplace=True)
            )
            (se): SqueezeAndExcitationLayer(
              (avgpool): AdaptiveAvgPool2d(output_size=(1, 1))
              (excitation): Sequential(
                (0): Conv2d(11110, 2778, kernel_size=(1, 1), stride=(1, 1))
                (1): ReLU()
                (2): Conv2d(2778, 11110, kernel_size=(1, 1), stride=(1, 1))
                (3): Sigmoid()
              )
            )
            (c): Conv2d(11110, 11110, kernel_size=(1, 1), stride=(1, 1), bias=False)
            (final_bn): BatchNorm2d(11110, eps=1e-05, momentum=0.1, affine=True, track_running_stats=True)
          )
          (relu): ReLU(inplace=True)
        )
        (block3-5): ResBottleneckBlock(
          (f): BottleneckTransform(
            (a): Sequential(
              (0): Conv2d(11110, 11110, kernel_size=(1, 1), stride=(1, 1), bias=False)
              (1): BatchNorm2d(11110, eps=1e-05, momentum=0.1, affine=True, track_running_stats=True)
              (2): ReLU(inplace=True)
            )
            (b): Sequential(
              (0): Conv2d(11110, 11110, kernel_size=(3, 3), stride=(1, 1), padding=(1, 1), groups=11, bias=False)
              (1): BatchNorm2d(11110, eps=1e-05, momentum=0.1, affine=True, track_running_stats=True)
              (2): ReLU(inplace=True)
            )
            (se): SqueezeAndExcitationLayer(
              (avgpool): AdaptiveAvgPool2d(output_size=(1, 1))
              (excitation): Sequential(
                (0): Conv2d(11110, 2778, kernel_size=(1, 1), stride=(1, 1))
                (1): ReLU()
                (2): Conv2d(2778, 11110, kernel_size=(1, 1), stride=(1, 1))
                (3): Sigmoid()
              )
            )
            (c): Conv2d(11110, 11110, kernel_size=(1, 1), stride=(1, 1), bias=False)
            (final_bn): BatchNorm2d(11110, eps=1e-05, momentum=0.1, affine=True, track_running_stats=True)
          )
          (relu): ReLU(inplace=True)
        )
        (block3-6): ResBottleneckBlock(
          (f): BottleneckTransform(
            (a): Sequential(
              (0): Conv2d(11110, 11110, kernel_size=(1, 1), stride=(1, 1), bias=False)
              (1): BatchNorm2d(11110, eps=1e-05, momentum=0.1, affine=True, track_running_stats=True)
              (2): ReLU(inplace=True)
            )
            (b): Sequential(
              (0): Conv2d(11110, 11110, kernel_size=(3, 3), stride=(1, 1), padding=(1, 1), groups=11, bias=False)
              (1): BatchNorm2d(11110, eps=1e-05, momentum=0.1, affine=True, track_running_stats=True)
              (2): ReLU(inplace=True)
            )
            (se): SqueezeAndExcitationLayer(
              (avgpool): AdaptiveAvgPool2d(output_size=(1, 1))
              (excitation): Sequential(
                (0): Conv2d(11110, 2778, kernel_size=(1, 1), stride=(1, 1))
                (1): ReLU()
                (2): Conv2d(2778, 11110, kernel_size=(1, 1), stride=(1, 1))
                (3): Sigmoid()
              )
            )
            (c): Conv2d(11110, 11110, kernel_size=(1, 1), stride=(1, 1), bias=False)
            (final_bn): BatchNorm2d(11110, eps=1e-05, momentum=0.1, affine=True, track_running_stats=True)
          )
          (relu): ReLU(inplace=True)
        )
        (block3-7): ResBottleneckBlock(
          (f): BottleneckTransform(
            (a): Sequential(
              (0): Conv2d(11110, 11110, kernel_size=(1, 1), stride=(1, 1), bias=False)
              (1): BatchNorm2d(11110, eps=1e-05, momentum=0.1, affine=True, track_running_stats=True)
              (2): ReLU(inplace=True)
            )
            (b): Sequential(
              (0): Conv2d(11110, 11110, kernel_size=(3, 3), stride=(1, 1), padding=(1, 1), groups=11, bias=False)
              (1): BatchNorm2d(11110, eps=1e-05, momentum=0.1, affine=True, track_running_stats=True)
              (2): ReLU(inplace=True)
            )
            (se): SqueezeAndExcitationLayer(
              (avgpool): AdaptiveAvgPool2d(output_size=(1, 1))
              (excitation): Sequential(
                (0): Conv2d(11110, 2778, kernel_size=(1, 1), stride=(1, 1))
                (1): ReLU()
                (2): Conv2d(2778, 11110, kernel_size=(1, 1), stride=(1, 1))
                (3): Sigmoid()
              )
            )
            (c): Conv2d(11110, 11110, kernel_size=(1, 1), stride=(1, 1), bias=False)
            (final_bn): BatchNorm2d(11110, eps=1e-05, momentum=0.1, affine=True, track_running_stats=True)
          )
          (relu): ReLU(inplace=True)
        )
        (block3-8): ResBottleneckBlock(
          (f): BottleneckTransform(
            (a): Sequential(
              (0): Conv2d(11110, 11110, kernel_size=(1, 1), stride=(1, 1), bias=False)
              (1): BatchNorm2d(11110, eps=1e-05, momentum=0.1, affine=True, track_running_stats=True)
              (2): ReLU(inplace=True)
            )
            (b): Sequential(
              (0): Conv2d(11110, 11110, kernel_size=(3, 3), stride=(1, 1), padding=(1, 1), groups=11, bias=False)
              (1): BatchNorm2d(11110, eps=1e-05, momentum=0.1, affine=True, track_running_stats=True)
              (2): ReLU(inplace=True)
            )
            (se): SqueezeAndExcitationLayer(
              (avgpool): AdaptiveAvgPool2d(output_size=(1, 1))
              (excitation): Sequential(
                (0): Conv2d(11110, 2778, kernel_size=(1, 1), stride=(1, 1))
                (1): ReLU()
                (2): Conv2d(2778, 11110, kernel_size=(1, 1), stride=(1, 1))
                (3): Sigmoid()
              )
            )
            (c): Conv2d(11110, 11110, kernel_size=(1, 1), stride=(1, 1), bias=False)
            (final_bn): BatchNorm2d(11110, eps=1e-05, momentum=0.1, affine=True, track_running_stats=True)
          )
          (relu): ReLU(inplace=True)
        )
        (block3-9): ResBottleneckBlock(
          (f): BottleneckTransform(
            (a): Sequential(
              (0): Conv2d(11110, 11110, kernel_size=(1, 1), stride=(1, 1), bias=False)
              (1): BatchNorm2d(11110, eps=1e-05, momentum=0.1, affine=True, track_running_stats=True)
              (2): ReLU(inplace=True)
            )
            (b): Sequential(
              (0): Conv2d(11110, 11110, kernel_size=(3, 3), stride=(1, 1), padding=(1, 1), groups=11, bias=False)
              (1): BatchNorm2d(11110, eps=1e-05, momentum=0.1, affine=True, track_running_stats=True)
              (2): ReLU(inplace=True)
            )
            (se): SqueezeAndExcitationLayer(
              (avgpool): AdaptiveAvgPool2d(output_size=(1, 1))
              (excitation): Sequential(
                (0): Conv2d(11110, 2778, kernel_size=(1, 1), stride=(1, 1))
                (1): ReLU()
                (2): Conv2d(2778, 11110, kernel_size=(1, 1), stride=(1, 1))
                (3): Sigmoid()
              )
            )
            (c): Conv2d(11110, 11110, kernel_size=(1, 1), stride=(1, 1), bias=False)
            (final_bn): BatchNorm2d(11110, eps=1e-05, momentum=0.1, affine=True, track_running_stats=True)
          )
          (relu): ReLU(inplace=True)
        )
        (block3-10): ResBottleneckBlock(
          (f): BottleneckTransform(
            (a): Sequential(
              (0): Conv2d(11110, 11110, kernel_size=(1, 1), stride=(1, 1), bias=False)
              (1): BatchNorm2d(11110, eps=1e-05, momentum=0.1, affine=True, track_running_stats=True)
              (2): ReLU(inplace=True)
            )
            (b): Sequential(
              (0): Conv2d(11110, 11110, kernel_size=(3, 3), stride=(1, 1), padding=(1, 1), groups=11, bias=False)
              (1): BatchNorm2d(11110, eps=1e-05, momentum=0.1, affine=True, track_running_stats=True)
              (2): ReLU(inplace=True)
            )
            (se): SqueezeAndExcitationLayer(
              (avgpool): AdaptiveAvgPool2d(output_size=(1, 1))
              (excitation): Sequential(
                (0): Conv2d(11110, 2778, kernel_size=(1, 1), stride=(1, 1))
                (1): ReLU()
                (2): Conv2d(2778, 11110, kernel_size=(1, 1), stride=(1, 1))
                (3): Sigmoid()
              )
            )
            (c): Conv2d(11110, 11110, kernel_size=(1, 1), stride=(1, 1), bias=False)
            (final_bn): BatchNorm2d(11110, eps=1e-05, momentum=0.1, affine=True, track_running_stats=True)
          )
          (relu): ReLU(inplace=True)
        )
        (block3-11): ResBottleneckBlock(
          (f): BottleneckTransform(
            (a): Sequential(
              (0): Conv2d(11110, 11110, kernel_size=(1, 1), stride=(1, 1), bias=False)
              (1): BatchNorm2d(11110, eps=1e-05, momentum=0.1, affine=True, track_running_stats=True)
              (2): ReLU(inplace=True)
            )
            (b): Sequential(
              (0): Conv2d(11110, 11110, kernel_size=(3, 3), stride=(1, 1), padding=(1, 1), groups=11, bias=False)
              (1): BatchNorm2d(11110, eps=1e-05, momentum=0.1, affine=True, track_running_stats=True)
              (2): ReLU(inplace=True)
            )
            (se): SqueezeAndExcitationLayer(
              (avgpool): AdaptiveAvgPool2d(output_size=(1, 1))
              (excitation): Sequential(
                (0): Conv2d(11110, 2778, kernel_size=(1, 1), stride=(1, 1))
                (1): ReLU()
                (2): Conv2d(2778, 11110, kernel_size=(1, 1), stride=(1, 1))
                (3): Sigmoid()
              )
            )
            (c): Conv2d(11110, 11110, kernel_size=(1, 1), stride=(1, 1), bias=False)
            (final_bn): BatchNorm2d(11110, eps=1e-05, momentum=0.1, affine=True, track_running_stats=True)
          )
          (relu): ReLU(inplace=True)
        )
        (block3-12): ResBottleneckBlock(
          (f): BottleneckTransform(
            (a): Sequential(
              (0): Conv2d(11110, 11110, kernel_size=(1, 1), stride=(1, 1), bias=False)
              (1): BatchNorm2d(11110, eps=1e-05, momentum=0.1, affine=True, track_running_stats=True)
              (2): ReLU(inplace=True)
            )
            (b): Sequential(
              (0): Conv2d(11110, 11110, kernel_size=(3, 3), stride=(1, 1), padding=(1, 1), groups=11, bias=False)
              (1): BatchNorm2d(11110, eps=1e-05, momentum=0.1, affine=True, track_running_stats=True)
              (2): ReLU(inplace=True)
            )
            (se): SqueezeAndExcitationLayer(
              (avgpool): AdaptiveAvgPool2d(output_size=(1, 1))
              (excitation): Sequential(
                (0): Conv2d(11110, 2778, kernel_size=(1, 1), stride=(1, 1))
                (1): ReLU()
                (2): Conv2d(2778, 11110, kernel_size=(1, 1), stride=(1, 1))
                (3): Sigmoid()
              )
            )
            (c): Conv2d(11110, 11110, kernel_size=(1, 1), stride=(1, 1), bias=False)
            (final_bn): BatchNorm2d(11110, eps=1e-05, momentum=0.1, affine=True, track_running_stats=True)
          )
          (relu): ReLU(inplace=True)
        )
        (block3-13): ResBottleneckBlock(
          (f): BottleneckTransform(
            (a): Sequential(
              (0): Conv2d(11110, 11110, kernel_size=(1, 1), stride=(1, 1), bias=False)
              (1): BatchNorm2d(11110, eps=1e-05, momentum=0.1, affine=True, track_running_stats=True)
              (2): ReLU(inplace=True)
            )
            (b): Sequential(
              (0): Conv2d(11110, 11110, kernel_size=(3, 3), stride=(1, 1), padding=(1, 1), groups=11, bias=False)
              (1): BatchNorm2d(11110, eps=1e-05, momentum=0.1, affine=True, track_running_stats=True)
              (2): ReLU(inplace=True)
            )
            (se): SqueezeAndExcitationLayer(
              (avgpool): AdaptiveAvgPool2d(output_size=(1, 1))
              (excitation): Sequential(
                (0): Conv2d(11110, 2778, kernel_size=(1, 1), stride=(1, 1))
                (1): ReLU()
                (2): Conv2d(2778, 11110, kernel_size=(1, 1), stride=(1, 1))
                (3): Sigmoid()
              )
            )
            (c): Conv2d(11110, 11110, kernel_size=(1, 1), stride=(1, 1), bias=False)
            (final_bn): BatchNorm2d(11110, eps=1e-05, momentum=0.1, affine=True, track_running_stats=True)
          )
          (relu): ReLU(inplace=True)
        )
        (block3-14): ResBottleneckBlock(
          (f): BottleneckTransform(
            (a): Sequential(
              (0): Conv2d(11110, 11110, kernel_size=(1, 1), stride=(1, 1), bias=False)
              (1): BatchNorm2d(11110, eps=1e-05, momentum=0.1, affine=True, track_running_stats=True)
              (2): ReLU(inplace=True)
            )
            (b): Sequential(
              (0): Conv2d(11110, 11110, kernel_size=(3, 3), stride=(1, 1), padding=(1, 1), groups=11, bias=False)
              (1): BatchNorm2d(11110, eps=1e-05, momentum=0.1, affine=True, track_running_stats=True)
              (2): ReLU(inplace=True)
            )
            (se): SqueezeAndExcitationLayer(
              (avgpool): AdaptiveAvgPool2d(output_size=(1, 1))
              (excitation): Sequential(
                (0): Conv2d(11110, 2778, kernel_size=(1, 1), stride=(1, 1))
                (1): ReLU()
                (2): Conv2d(2778, 11110, kernel_size=(1, 1), stride=(1, 1))
                (3): Sigmoid()
              )
            )
            (c): Conv2d(11110, 11110, kernel_size=(1, 1), stride=(1, 1), bias=False)
            (final_bn): BatchNorm2d(11110, eps=1e-05, momentum=0.1, affine=True, track_running_stats=True)
          )
          (relu): ReLU(inplace=True)
        )
        (block3-15): ResBottleneckBlock(
          (f): BottleneckTransform(
            (a): Sequential(
              (0): Conv2d(11110, 11110, kernel_size=(1, 1), stride=(1, 1), bias=False)
              (1): BatchNorm2d(11110, eps=1e-05, momentum=0.1, affine=True, track_running_stats=True)
              (2): ReLU(inplace=True)
            )
            (b): Sequential(
              (0): Conv2d(11110, 11110, kernel_size=(3, 3), stride=(1, 1), padding=(1, 1), groups=11, bias=False)
              (1): BatchNorm2d(11110, eps=1e-05, momentum=0.1, affine=True, track_running_stats=True)
              (2): ReLU(inplace=True)
            )
            (se): SqueezeAndExcitationLayer(
              (avgpool): AdaptiveAvgPool2d(output_size=(1, 1))
              (excitation): Sequential(
                (0): Conv2d(11110, 2778, kernel_size=(1, 1), stride=(1, 1))
                (1): ReLU()
                (2): Conv2d(2778, 11110, kernel_size=(1, 1), stride=(1, 1))
                (3): Sigmoid()
              )
            )
            (c): Conv2d(11110, 11110, kernel_size=(1, 1), stride=(1, 1), bias=False)
            (final_bn): BatchNorm2d(11110, eps=1e-05, momentum=0.1, affine=True, track_running_stats=True)
          )
          (relu): ReLU(inplace=True)
        )
        (block3-16): ResBottleneckBlock(
          (f): BottleneckTransform(
            (a): Sequential(
              (0): Conv2d(11110, 11110, kernel_size=(1, 1), stride=(1, 1), bias=False)
              (1): BatchNorm2d(11110, eps=1e-05, momentum=0.1, affine=True, track_running_stats=True)
              (2): ReLU(inplace=True)
            )
            (b): Sequential(
              (0): Conv2d(11110, 11110, kernel_size=(3, 3), stride=(1, 1), padding=(1, 1), groups=11, bias=False)
              (1): BatchNorm2d(11110, eps=1e-05, momentum=0.1, affine=True, track_running_stats=True)
              (2): ReLU(inplace=True)
            )
            (se): SqueezeAndExcitationLayer(
              (avgpool): AdaptiveAvgPool2d(output_size=(1, 1))
              (excitation): Sequential(
                (0): Conv2d(11110, 2778, kernel_size=(1, 1), stride=(1, 1))
                (1): ReLU()
                (2): Conv2d(2778, 11110, kernel_size=(1, 1), stride=(1, 1))
                (3): Sigmoid()
              )
            )
            (c): Conv2d(11110, 11110, kernel_size=(1, 1), stride=(1, 1), bias=False)
            (final_bn): BatchNorm2d(11110, eps=1e-05, momentum=0.1, affine=True, track_running_stats=True)
          )
          (relu): ReLU(inplace=True)
        )
      )
      (res5): AnyStage(
        (block4-0): ResBottleneckBlock(
          (proj): Conv2d(11110, 28280, kernel_size=(1, 1), stride=(2, 2), bias=False)
          (bn): BatchNorm2d(28280, eps=1e-05, momentum=0.1, affine=True, track_running_stats=True)
          (f): BottleneckTransform(
            (a): Sequential(
              (0): Conv2d(11110, 28280, kernel_size=(1, 1), stride=(1, 1), bias=False)
              (1): BatchNorm2d(28280, eps=1e-05, momentum=0.1, affine=True, track_running_stats=True)
              (2): ReLU(inplace=True)
            )
            (b): Sequential(
              (0): Conv2d(28280, 28280, kernel_size=(3, 3), stride=(2, 2), padding=(1, 1), groups=28, bias=False)
              (1): BatchNorm2d(28280, eps=1e-05, momentum=0.1, affine=True, track_running_stats=True)
              (2): ReLU(inplace=True)
            )
            (se): SqueezeAndExcitationLayer(
              (avgpool): AdaptiveAvgPool2d(output_size=(1, 1))
              (excitation): Sequential(
                (0): Conv2d(28280, 2778, kernel_size=(1, 1), stride=(1, 1))
                (1): ReLU()
                (2): Conv2d(2778, 28280, kernel_size=(1, 1), stride=(1, 1))
                (3): Sigmoid()
              )
            )
            (c): Conv2d(28280, 28280, kernel_size=(1, 1), stride=(1, 1), bias=False)
            (final_bn): BatchNorm2d(28280, eps=1e-05, momentum=0.1, affine=True, track_running_stats=True)
          )
          (relu): ReLU(inplace=True)
        )
      )
      (avgpool): AdaptiveAvgPool2d(output_size=(1, 1))
      (flatten): Flatten()
    )
  )
  (heads): ModuleList(
    (0): MLP(
      (clf): Sequential(
        (0): Linear(in_features=28280, out_features=1000, bias=True)
      )
    )
  )
  (seq_model): Pipe(
    (partitions): ModuleList(
      (0): Sequential(
        (0): Conv2d(3, 32, kernel_size=(3, 3), stride=(2, 2), padding=(1, 1), bias=False)
        (1): BatchNorm2d(32, eps=1e-05, momentum=0.1, affine=True, track_running_stats=True)
        (2): ReLU(inplace=True)
        (3): ResBottleneckBlock(
          (proj): Conv2d(32, 2020, kernel_size=(1, 1), stride=(2, 2), bias=False)
          (bn): BatchNorm2d(2020, eps=1e-05, momentum=0.1, affine=True, track_running_stats=True)
          (f): BottleneckTransform(
            (a): Sequential(
              (0): Conv2d(32, 2020, kernel_size=(1, 1), stride=(1, 1), bias=False)
              (1): BatchNorm2d(2020, eps=1e-05, momentum=0.1, affine=True, track_running_stats=True)
              (2): ReLU(inplace=True)
            )
            (b): Sequential(
              (0): Conv2d(2020, 2020, kernel_size=(3, 3), stride=(2, 2), padding=(1, 1), groups=2, bias=False)
              (1): BatchNorm2d(2020, eps=1e-05, momentum=0.1, affine=True, track_running_stats=True)
              (2): ReLU(inplace=True)
            )
            (se): SqueezeAndExcitationLayer(
              (avgpool): AdaptiveAvgPool2d(output_size=(1, 1))
              (excitation): Sequential(
                (0): Conv2d(2020, 8, kernel_size=(1, 1), stride=(1, 1))
                (1): ReLU()
                (2): Conv2d(8, 2020, kernel_size=(1, 1), stride=(1, 1))
                (3): Sigmoid()
              )
            )
            (c): Conv2d(2020, 2020, kernel_size=(1, 1), stride=(1, 1), bias=False)
            (final_bn): BatchNorm2d(2020, eps=1e-05, momentum=0.1, affine=True, track_running_stats=True)
          )
          (relu): ReLU(inplace=True)
        )
        (4): ResBottleneckBlock(
          (f): BottleneckTransform(
            (a): Sequential(
              (0): Conv2d(2020, 2020, kernel_size=(1, 1), stride=(1, 1), bias=False)
              (1): BatchNorm2d(2020, eps=1e-05, momentum=0.1, affine=True, track_running_stats=True)
              (2): ReLU(inplace=True)
            )
            (b): Sequential(
              (0): Conv2d(2020, 2020, kernel_size=(3, 3), stride=(1, 1), padding=(1, 1), groups=2, bias=False)
              (1): BatchNorm2d(2020, eps=1e-05, momentum=0.1, affine=True, track_running_stats=True)
              (2): ReLU(inplace=True)
            )
            (se): SqueezeAndExcitationLayer(
              (avgpool): AdaptiveAvgPool2d(output_size=(1, 1))
              (excitation): Sequential(
                (0): Conv2d(2020, 505, kernel_size=(1, 1), stride=(1, 1))
                (1): ReLU()
                (2): Conv2d(505, 2020, kernel_size=(1, 1), stride=(1, 1))
                (3): Sigmoid()
              )
            )
            (c): Conv2d(2020, 2020, kernel_size=(1, 1), stride=(1, 1), bias=False)
            (final_bn): BatchNorm2d(2020, eps=1e-05, momentum=0.1, affine=True, track_running_stats=True)
          )
          (relu): ReLU(inplace=True)
        )
        (5): ResBottleneckBlock(
          (proj): Conv2d(2020, 4040, kernel_size=(1, 1), stride=(2, 2), bias=False)
          (bn): BatchNorm2d(4040, eps=1e-05, momentum=0.1, affine=True, track_running_stats=True)
          (f): BottleneckTransform(
            (a): Sequential(
              (0): Conv2d(2020, 4040, kernel_size=(1, 1), stride=(1, 1), bias=False)
              (1): BatchNorm2d(4040, eps=1e-05, momentum=0.1, affine=True, track_running_stats=True)
              (2): ReLU(inplace=True)
            )
            (b): Sequential(
              (0): Conv2d(4040, 4040, kernel_size=(3, 3), stride=(2, 2), padding=(1, 1), groups=4, bias=False)
              (1): BatchNorm2d(4040, eps=1e-05, momentum=0.1, affine=True, track_running_stats=True)
              (2): ReLU(inplace=True)
            )
            (se): SqueezeAndExcitationLayer(
              (avgpool): AdaptiveAvgPool2d(output_size=(1, 1))
              (excitation): Sequential(
                (0): Conv2d(4040, 505, kernel_size=(1, 1), stride=(1, 1))
                (1): ReLU()
                (2): Conv2d(505, 4040, kernel_size=(1, 1), stride=(1, 1))
                (3): Sigmoid()
              )
            )
            (c): Conv2d(4040, 4040, kernel_size=(1, 1), stride=(1, 1), bias=False)
            (final_bn): BatchNorm2d(4040, eps=1e-05, momentum=0.1, affine=True, track_running_stats=True)
          )
          (relu): ReLU(inplace=True)
        )
        (6): ResBottleneckBlock(
          (f): BottleneckTransform(
            (a): Sequential(
              (0): Conv2d(4040, 4040, kernel_size=(1, 1), stride=(1, 1), bias=False)
              (1): BatchNorm2d(4040, eps=1e-05, momentum=0.1, affine=True, track_running_stats=True)
              (2): ReLU(inplace=True)
            )
            (b): Sequential(
              (0): Conv2d(4040, 4040, kernel_size=(3, 3), stride=(1, 1), padding=(1, 1), groups=4, bias=False)
              (1): BatchNorm2d(4040, eps=1e-05, momentum=0.1, affine=True, track_running_stats=True)
              (2): ReLU(inplace=True)
            )
            (se): SqueezeAndExcitationLayer(
              (avgpool): AdaptiveAvgPool2d(output_size=(1, 1))
              (excitation): Sequential(
                (0): Conv2d(4040, 1010, kernel_size=(1, 1), stride=(1, 1))
                (1): ReLU()
                (2): Conv2d(1010, 4040, kernel_size=(1, 1), stride=(1, 1))
                (3): Sigmoid()
              )
            )
            (c): Conv2d(4040, 4040, kernel_size=(1, 1), stride=(1, 1), bias=False)
            (final_bn): BatchNorm2d(4040, eps=1e-05, momentum=0.1, affine=True, track_running_stats=True)
          )
          (relu): ReLU(inplace=True)
        )
        (7): ResBottleneckBlock(
          (f): BottleneckTransform(
            (a): Sequential(
              (0): Conv2d(4040, 4040, kernel_size=(1, 1), stride=(1, 1), bias=False)
              (1): BatchNorm2d(4040, eps=1e-05, momentum=0.1, affine=True, track_running_stats=True)
              (2): ReLU(inplace=True)
            )
            (b): Sequential(
              (0): Conv2d(4040, 4040, kernel_size=(3, 3), stride=(1, 1), padding=(1, 1), groups=4, bias=False)
              (1): BatchNorm2d(4040, eps=1e-05, momentum=0.1, affine=True, track_running_stats=True)
              (2): ReLU(inplace=True)
            )
            (se): SqueezeAndExcitationLayer(
              (avgpool): AdaptiveAvgPool2d(output_size=(1, 1))
              (excitation): Sequential(
                (0): Conv2d(4040, 1010, kernel_size=(1, 1), stride=(1, 1))
                (1): ReLU()
                (2): Conv2d(1010, 4040, kernel_size=(1, 1), stride=(1, 1))
                (3): Sigmoid()
              )
            )
            (c): Conv2d(4040, 4040, kernel_size=(1, 1), stride=(1, 1), bias=False)
            (final_bn): BatchNorm2d(4040, eps=1e-05, momentum=0.1, affine=True, track_running_stats=True)
          )
          (relu): ReLU(inplace=True)
        )
      )
      (1): Sequential(
        (8): ResBottleneckBlock(
          (f): BottleneckTransform(
            (a): Sequential(
              (0): Conv2d(4040, 4040, kernel_size=(1, 1), stride=(1, 1), bias=False)
              (1): BatchNorm2d(4040, eps=1e-05, momentum=0.1, affine=True, track_running_stats=True)
              (2): ReLU(inplace=True)
            )
            (b): Sequential(
              (0): Conv2d(4040, 4040, kernel_size=(3, 3), stride=(1, 1), padding=(1, 1), groups=4, bias=False)
              (1): BatchNorm2d(4040, eps=1e-05, momentum=0.1, affine=True, track_running_stats=True)
              (2): ReLU(inplace=True)
            )
            (se): SqueezeAndExcitationLayer(
              (avgpool): AdaptiveAvgPool2d(output_size=(1, 1))
              (excitation): Sequential(
                (0): Conv2d(4040, 1010, kernel_size=(1, 1), stride=(1, 1))
                (1): ReLU()
                (2): Conv2d(1010, 4040, kernel_size=(1, 1), stride=(1, 1))
                (3): Sigmoid()
              )
            )
            (c): Conv2d(4040, 4040, kernel_size=(1, 1), stride=(1, 1), bias=False)
            (final_bn): BatchNorm2d(4040, eps=1e-05, momentum=0.1, affine=True, track_running_stats=True)
          )
          (relu): ReLU(inplace=True)
        )
        (9): ResBottleneckBlock(
          (f): BottleneckTransform(
            (a): Sequential(
              (0): Conv2d(4040, 4040, kernel_size=(1, 1), stride=(1, 1), bias=False)
              (1): BatchNorm2d(4040, eps=1e-05, momentum=0.1, affine=True, track_running_stats=True)
              (2): ReLU(inplace=True)
            )
            (b): Sequential(
              (0): Conv2d(4040, 4040, kernel_size=(3, 3), stride=(1, 1), padding=(1, 1), groups=4, bias=False)
              (1): BatchNorm2d(4040, eps=1e-05, momentum=0.1, affine=True, track_running_stats=True)
              (2): ReLU(inplace=True)
            )
            (se): SqueezeAndExcitationLayer(
              (avgpool): AdaptiveAvgPool2d(output_size=(1, 1))
              (excitation): Sequential(
                (0): Conv2d(4040, 1010, kernel_size=(1, 1), stride=(1, 1))
                (1): ReLU()
                (2): Conv2d(1010, 4040, kernel_size=(1, 1), stride=(1, 1))
                (3): Sigmoid()
              )
            )
            (c): Conv2d(4040, 4040, kernel_size=(1, 1), stride=(1, 1), bias=False)
            (final_bn): BatchNorm2d(4040, eps=1e-05, momentum=0.1, affine=True, track_running_stats=True)
          )
          (relu): ReLU(inplace=True)
        )
        (10): ResBottleneckBlock(
          (f): BottleneckTransform(
            (a): Sequential(
              (0): Conv2d(4040, 4040, kernel_size=(1, 1), stride=(1, 1), bias=False)
              (1): BatchNorm2d(4040, eps=1e-05, momentum=0.1, affine=True, track_running_stats=True)
              (2): ReLU(inplace=True)
            )
            (b): Sequential(
              (0): Conv2d(4040, 4040, kernel_size=(3, 3), stride=(1, 1), padding=(1, 1), groups=4, bias=False)
              (1): BatchNorm2d(4040, eps=1e-05, momentum=0.1, affine=True, track_running_stats=True)
              (2): ReLU(inplace=True)
            )
            (se): SqueezeAndExcitationLayer(
              (avgpool): AdaptiveAvgPool2d(output_size=(1, 1))
              (excitation): Sequential(
                (0): Conv2d(4040, 1010, kernel_size=(1, 1), stride=(1, 1))
                (1): ReLU()
                (2): Conv2d(1010, 4040, kernel_size=(1, 1), stride=(1, 1))
                (3): Sigmoid()
              )
            )
            (c): Conv2d(4040, 4040, kernel_size=(1, 1), stride=(1, 1), bias=False)
            (final_bn): BatchNorm2d(4040, eps=1e-05, momentum=0.1, affine=True, track_running_stats=True)
          )
          (relu): ReLU(inplace=True)
        )
        (11): ResBottleneckBlock(
          (f): BottleneckTransform(
            (a): Sequential(
              (0): Conv2d(4040, 4040, kernel_size=(1, 1), stride=(1, 1), bias=False)
              (1): BatchNorm2d(4040, eps=1e-05, momentum=0.1, affine=True, track_running_stats=True)
              (2): ReLU(inplace=True)
            )
            (b): Sequential(
              (0): Conv2d(4040, 4040, kernel_size=(3, 3), stride=(1, 1), padding=(1, 1), groups=4, bias=False)
              (1): BatchNorm2d(4040, eps=1e-05, momentum=0.1, affine=True, track_running_stats=True)
              (2): ReLU(inplace=True)
            )
            (se): SqueezeAndExcitationLayer(
              (avgpool): AdaptiveAvgPool2d(output_size=(1, 1))
              (excitation): Sequential(
                (0): Conv2d(4040, 1010, kernel_size=(1, 1), stride=(1, 1))
                (1): ReLU()
                (2): Conv2d(1010, 4040, kernel_size=(1, 1), stride=(1, 1))
                (3): Sigmoid()
              )
            )
            (c): Conv2d(4040, 4040, kernel_size=(1, 1), stride=(1, 1), bias=False)
            (final_bn): BatchNorm2d(4040, eps=1e-05, momentum=0.1, affine=True, track_running_stats=True)
          )
          (relu): ReLU(inplace=True)
        )
        (12): ResBottleneckBlock(
          (proj): Conv2d(4040, 11110, kernel_size=(1, 1), stride=(2, 2), bias=False)
          (bn): BatchNorm2d(11110, eps=1e-05, momentum=0.1, affine=True, track_running_stats=True)
          (f): BottleneckTransform(
            (a): Sequential(
              (0): Conv2d(4040, 11110, kernel_size=(1, 1), stride=(1, 1), bias=False)
              (1): BatchNorm2d(11110, eps=1e-05, momentum=0.1, affine=True, track_running_stats=True)
              (2): ReLU(inplace=True)
            )
            (b): Sequential(
              (0): Conv2d(11110, 11110, kernel_size=(3, 3), stride=(2, 2), padding=(1, 1), groups=11, bias=False)
              (1): BatchNorm2d(11110, eps=1e-05, momentum=0.1, affine=True, track_running_stats=True)
              (2): ReLU(inplace=True)
            )
            (se): SqueezeAndExcitationLayer(
              (avgpool): AdaptiveAvgPool2d(output_size=(1, 1))
              (excitation): Sequential(
                (0): Conv2d(11110, 1010, kernel_size=(1, 1), stride=(1, 1))
                (1): ReLU()
                (2): Conv2d(1010, 11110, kernel_size=(1, 1), stride=(1, 1))
                (3): Sigmoid()
              )
            )
            (c): Conv2d(11110, 11110, kernel_size=(1, 1), stride=(1, 1), bias=False)
            (final_bn): BatchNorm2d(11110, eps=1e-05, momentum=0.1, affine=True, track_running_stats=True)
          )
          (relu): ReLU(inplace=True)
        )
      )
      (2): Sequential(
        (13): ResBottleneckBlock(
          (f): BottleneckTransform(
            (a): Sequential(
              (0): Conv2d(11110, 11110, kernel_size=(1, 1), stride=(1, 1), bias=False)
              (1): BatchNorm2d(11110, eps=1e-05, momentum=0.1, affine=True, track_running_stats=True)
              (2): ReLU(inplace=True)
            )
            (b): Sequential(
              (0): Conv2d(11110, 11110, kernel_size=(3, 3), stride=(1, 1), padding=(1, 1), groups=11, bias=False)
              (1): BatchNorm2d(11110, eps=1e-05, momentum=0.1, affine=True, track_running_stats=True)
              (2): ReLU(inplace=True)
            )
            (se): SqueezeAndExcitationLayer(
              (avgpool): AdaptiveAvgPool2d(output_size=(1, 1))
              (excitation): Sequential(
                (0): Conv2d(11110, 2778, kernel_size=(1, 1), stride=(1, 1))
                (1): ReLU()
                (2): Conv2d(2778, 11110, kernel_size=(1, 1), stride=(1, 1))
                (3): Sigmoid()
              )
            )
            (c): Conv2d(11110, 11110, kernel_size=(1, 1), stride=(1, 1), bias=False)
            (final_bn): BatchNorm2d(11110, eps=1e-05, momentum=0.1, affine=True, track_running_stats=True)
          )
          (relu): ReLU(inplace=True)
        )
        (14): ResBottleneckBlock(
          (f): BottleneckTransform(
            (a): Sequential(
              (0): Conv2d(11110, 11110, kernel_size=(1, 1), stride=(1, 1), bias=False)
              (1): BatchNorm2d(11110, eps=1e-05, momentum=0.1, affine=True, track_running_stats=True)
              (2): ReLU(inplace=True)
            )
            (b): Sequential(
              (0): Conv2d(11110, 11110, kernel_size=(3, 3), stride=(1, 1), padding=(1, 1), groups=11, bias=False)
              (1): BatchNorm2d(11110, eps=1e-05, momentum=0.1, affine=True, track_running_stats=True)
              (2): ReLU(inplace=True)
            )
            (se): SqueezeAndExcitationLayer(
              (avgpool): AdaptiveAvgPool2d(output_size=(1, 1))
              (excitation): Sequential(
                (0): Conv2d(11110, 2778, kernel_size=(1, 1), stride=(1, 1))
                (1): ReLU()
                (2): Conv2d(2778, 11110, kernel_size=(1, 1), stride=(1, 1))
                (3): Sigmoid()
              )
            )
            (c): Conv2d(11110, 11110, kernel_size=(1, 1), stride=(1, 1), bias=False)
            (final_bn): BatchNorm2d(11110, eps=1e-05, momentum=0.1, affine=True, track_running_stats=True)
          )
          (relu): ReLU(inplace=True)
        )
        (15): ResBottleneckBlock(
          (f): BottleneckTransform(
            (a): Sequential(
              (0): Conv2d(11110, 11110, kernel_size=(1, 1), stride=(1, 1), bias=False)
              (1): BatchNorm2d(11110, eps=1e-05, momentum=0.1, affine=True, track_running_stats=True)
              (2): ReLU(inplace=True)
            )
            (b): Sequential(
              (0): Conv2d(11110, 11110, kernel_size=(3, 3), stride=(1, 1), padding=(1, 1), groups=11, bias=False)
              (1): BatchNorm2d(11110, eps=1e-05, momentum=0.1, affine=True, track_running_stats=True)
              (2): ReLU(inplace=True)
            )
            (se): SqueezeAndExcitationLayer(
              (avgpool): AdaptiveAvgPool2d(output_size=(1, 1))
              (excitation): Sequential(
                (0): Conv2d(11110, 2778, kernel_size=(1, 1), stride=(1, 1))
                (1): ReLU()
                (2): Conv2d(2778, 11110, kernel_size=(1, 1), stride=(1, 1))
                (3): Sigmoid()
              )
            )
            (c): Conv2d(11110, 11110, kernel_size=(1, 1), stride=(1, 1), bias=False)
            (final_bn): BatchNorm2d(11110, eps=1e-05, momentum=0.1, affine=True, track_running_stats=True)
          )
          (relu): ReLU(inplace=True)
        )
        (16): ResBottleneckBlock(
          (f): BottleneckTransform(
            (a): Sequential(
              (0): Conv2d(11110, 11110, kernel_size=(1, 1), stride=(1, 1), bias=False)
              (1): BatchNorm2d(11110, eps=1e-05, momentum=0.1, affine=True, track_running_stats=True)
              (2): ReLU(inplace=True)
            )
            (b): Sequential(
              (0): Conv2d(11110, 11110, kernel_size=(3, 3), stride=(1, 1), padding=(1, 1), groups=11, bias=False)
              (1): BatchNorm2d(11110, eps=1e-05, momentum=0.1, affine=True, track_running_stats=True)
              (2): ReLU(inplace=True)
            )
            (se): SqueezeAndExcitationLayer(
              (avgpool): AdaptiveAvgPool2d(output_size=(1, 1))
              (excitation): Sequential(
                (0): Conv2d(11110, 2778, kernel_size=(1, 1), stride=(1, 1))
                (1): ReLU()
                (2): Conv2d(2778, 11110, kernel_size=(1, 1), stride=(1, 1))
                (3): Sigmoid()
              )
            )
            (c): Conv2d(11110, 11110, kernel_size=(1, 1), stride=(1, 1), bias=False)
            (final_bn): BatchNorm2d(11110, eps=1e-05, momentum=0.1, affine=True, track_running_stats=True)
          )
          (relu): ReLU(inplace=True)
        )
      )
      (3): Sequential(
        (17): ResBottleneckBlock(
          (f): BottleneckTransform(
            (a): Sequential(
              (0): Conv2d(11110, 11110, kernel_size=(1, 1), stride=(1, 1), bias=False)
              (1): BatchNorm2d(11110, eps=1e-05, momentum=0.1, affine=True, track_running_stats=True)
              (2): ReLU(inplace=True)
            )
            (b): Sequential(
              (0): Conv2d(11110, 11110, kernel_size=(3, 3), stride=(1, 1), padding=(1, 1), groups=11, bias=False)
              (1): BatchNorm2d(11110, eps=1e-05, momentum=0.1, affine=True, track_running_stats=True)
              (2): ReLU(inplace=True)
            )
            (se): SqueezeAndExcitationLayer(
              (avgpool): AdaptiveAvgPool2d(output_size=(1, 1))
              (excitation): Sequential(
                (0): Conv2d(11110, 2778, kernel_size=(1, 1), stride=(1, 1))
                (1): ReLU()
                (2): Conv2d(2778, 11110, kernel_size=(1, 1), stride=(1, 1))
                (3): Sigmoid()
              )
            )
            (c): Conv2d(11110, 11110, kernel_size=(1, 1), stride=(1, 1), bias=False)
            (final_bn): BatchNorm2d(11110, eps=1e-05, momentum=0.1, affine=True, track_running_stats=True)
          )
          (relu): ReLU(inplace=True)
        )
        (18): ResBottleneckBlock(
          (f): BottleneckTransform(
            (a): Sequential(
              (0): Conv2d(11110, 11110, kernel_size=(1, 1), stride=(1, 1), bias=False)
              (1): BatchNorm2d(11110, eps=1e-05, momentum=0.1, affine=True, track_running_stats=True)
              (2): ReLU(inplace=True)
            )
            (b): Sequential(
              (0): Conv2d(11110, 11110, kernel_size=(3, 3), stride=(1, 1), padding=(1, 1), groups=11, bias=False)
              (1): BatchNorm2d(11110, eps=1e-05, momentum=0.1, affine=True, track_running_stats=True)
              (2): ReLU(inplace=True)
            )
            (se): SqueezeAndExcitationLayer(
              (avgpool): AdaptiveAvgPool2d(output_size=(1, 1))
              (excitation): Sequential(
                (0): Conv2d(11110, 2778, kernel_size=(1, 1), stride=(1, 1))
                (1): ReLU()
                (2): Conv2d(2778, 11110, kernel_size=(1, 1), stride=(1, 1))
                (3): Sigmoid()
              )
            )
            (c): Conv2d(11110, 11110, kernel_size=(1, 1), stride=(1, 1), bias=False)
            (final_bn): BatchNorm2d(11110, eps=1e-05, momentum=0.1, affine=True, track_running_stats=True)
          )
          (relu): ReLU(inplace=True)
        )
        (19): ResBottleneckBlock(
          (f): BottleneckTransform(
            (a): Sequential(
              (0): Conv2d(11110, 11110, kernel_size=(1, 1), stride=(1, 1), bias=False)
              (1): BatchNorm2d(11110, eps=1e-05, momentum=0.1, affine=True, track_running_stats=True)
              (2): ReLU(inplace=True)
            )
            (b): Sequential(
              (0): Conv2d(11110, 11110, kernel_size=(3, 3), stride=(1, 1), padding=(1, 1), groups=11, bias=False)
              (1): BatchNorm2d(11110, eps=1e-05, momentum=0.1, affine=True, track_running_stats=True)
              (2): ReLU(inplace=True)
            )
            (se): SqueezeAndExcitationLayer(
              (avgpool): AdaptiveAvgPool2d(output_size=(1, 1))
              (excitation): Sequential(
                (0): Conv2d(11110, 2778, kernel_size=(1, 1), stride=(1, 1))
                (1): ReLU()
                (2): Conv2d(2778, 11110, kernel_size=(1, 1), stride=(1, 1))
                (3): Sigmoid()
              )
            )
            (c): Conv2d(11110, 11110, kernel_size=(1, 1), stride=(1, 1), bias=False)
            (final_bn): BatchNorm2d(11110, eps=1e-05, momentum=0.1, affine=True, track_running_stats=True)
          )
          (relu): ReLU(inplace=True)
        )
        (20): ResBottleneckBlock(
          (f): BottleneckTransform(
            (a): Sequential(
              (0): Conv2d(11110, 11110, kernel_size=(1, 1), stride=(1, 1), bias=False)
              (1): BatchNorm2d(11110, eps=1e-05, momentum=0.1, affine=True, track_running_stats=True)
              (2): ReLU(inplace=True)
            )
            (b): Sequential(
              (0): Conv2d(11110, 11110, kernel_size=(3, 3), stride=(1, 1), padding=(1, 1), groups=11, bias=False)
              (1): BatchNorm2d(11110, eps=1e-05, momentum=0.1, affine=True, track_running_stats=True)
              (2): ReLU(inplace=True)
            )
            (se): SqueezeAndExcitationLayer(
              (avgpool): AdaptiveAvgPool2d(output_size=(1, 1))
              (excitation): Sequential(
                (0): Conv2d(11110, 2778, kernel_size=(1, 1), stride=(1, 1))
                (1): ReLU()
                (2): Conv2d(2778, 11110, kernel_size=(1, 1), stride=(1, 1))
                (3): Sigmoid()
              )
            )
            (c): Conv2d(11110, 11110, kernel_size=(1, 1), stride=(1, 1), bias=False)
            (final_bn): BatchNorm2d(11110, eps=1e-05, momentum=0.1, affine=True, track_running_stats=True)
          )
          (relu): ReLU(inplace=True)
        )
      )
      (4): Sequential(
        (21): ResBottleneckBlock(
          (f): BottleneckTransform(
            (a): Sequential(
              (0): Conv2d(11110, 11110, kernel_size=(1, 1), stride=(1, 1), bias=False)
              (1): BatchNorm2d(11110, eps=1e-05, momentum=0.1, affine=True, track_running_stats=True)
              (2): ReLU(inplace=True)
            )
            (b): Sequential(
              (0): Conv2d(11110, 11110, kernel_size=(3, 3), stride=(1, 1), padding=(1, 1), groups=11, bias=False)
              (1): BatchNorm2d(11110, eps=1e-05, momentum=0.1, affine=True, track_running_stats=True)
              (2): ReLU(inplace=True)
            )
            (se): SqueezeAndExcitationLayer(
              (avgpool): AdaptiveAvgPool2d(output_size=(1, 1))
              (excitation): Sequential(
                (0): Conv2d(11110, 2778, kernel_size=(1, 1), stride=(1, 1))
                (1): ReLU()
                (2): Conv2d(2778, 11110, kernel_size=(1, 1), stride=(1, 1))
                (3): Sigmoid()
              )
            )
            (c): Conv2d(11110, 11110, kernel_size=(1, 1), stride=(1, 1), bias=False)
            (final_bn): BatchNorm2d(11110, eps=1e-05, momentum=0.1, affine=True, track_running_stats=True)
          )
          (relu): ReLU(inplace=True)
        )
        (22): ResBottleneckBlock(
          (f): BottleneckTransform(
            (a): Sequential(
              (0): Conv2d(11110, 11110, kernel_size=(1, 1), stride=(1, 1), bias=False)
              (1): BatchNorm2d(11110, eps=1e-05, momentum=0.1, affine=True, track_running_stats=True)
              (2): ReLU(inplace=True)
            )
            (b): Sequential(
              (0): Conv2d(11110, 11110, kernel_size=(3, 3), stride=(1, 1), padding=(1, 1), groups=11, bias=False)
              (1): BatchNorm2d(11110, eps=1e-05, momentum=0.1, affine=True, track_running_stats=True)
              (2): ReLU(inplace=True)
            )
            (se): SqueezeAndExcitationLayer(
              (avgpool): AdaptiveAvgPool2d(output_size=(1, 1))
              (excitation): Sequential(
                (0): Conv2d(11110, 2778, kernel_size=(1, 1), stride=(1, 1))
                (1): ReLU()
                (2): Conv2d(2778, 11110, kernel_size=(1, 1), stride=(1, 1))
                (3): Sigmoid()
              )
            )
            (c): Conv2d(11110, 11110, kernel_size=(1, 1), stride=(1, 1), bias=False)
            (final_bn): BatchNorm2d(11110, eps=1e-05, momentum=0.1, affine=True, track_running_stats=True)
          )
          (relu): ReLU(inplace=True)
        )
        (23): ResBottleneckBlock(
          (f): BottleneckTransform(
            (a): Sequential(
              (0): Conv2d(11110, 11110, kernel_size=(1, 1), stride=(1, 1), bias=False)
              (1): BatchNorm2d(11110, eps=1e-05, momentum=0.1, affine=True, track_running_stats=True)
              (2): ReLU(inplace=True)
            )
            (b): Sequential(
              (0): Conv2d(11110, 11110, kernel_size=(3, 3), stride=(1, 1), padding=(1, 1), groups=11, bias=False)
              (1): BatchNorm2d(11110, eps=1e-05, momentum=0.1, affine=True, track_running_stats=True)
              (2): ReLU(inplace=True)
            )
            (se): SqueezeAndExcitationLayer(
              (avgpool): AdaptiveAvgPool2d(output_size=(1, 1))
              (excitation): Sequential(
                (0): Conv2d(11110, 2778, kernel_size=(1, 1), stride=(1, 1))
                (1): ReLU()
                (2): Conv2d(2778, 11110, kernel_size=(1, 1), stride=(1, 1))
                (3): Sigmoid()
              )
            )
            (c): Conv2d(11110, 11110, kernel_size=(1, 1), stride=(1, 1), bias=False)
            (final_bn): BatchNorm2d(11110, eps=1e-05, momentum=0.1, affine=True, track_running_stats=True)
          )
          (relu): ReLU(inplace=True)
        )
        (24): ResBottleneckBlock(
          (f): BottleneckTransform(
            (a): Sequential(
              (0): Conv2d(11110, 11110, kernel_size=(1, 1), stride=(1, 1), bias=False)
              (1): BatchNorm2d(11110, eps=1e-05, momentum=0.1, affine=True, track_running_stats=True)
              (2): ReLU(inplace=True)
            )
            (b): Sequential(
              (0): Conv2d(11110, 11110, kernel_size=(3, 3), stride=(1, 1), padding=(1, 1), groups=11, bias=False)
              (1): BatchNorm2d(11110, eps=1e-05, momentum=0.1, affine=True, track_running_stats=True)
              (2): ReLU(inplace=True)
            )
            (se): SqueezeAndExcitationLayer(
              (avgpool): AdaptiveAvgPool2d(output_size=(1, 1))
              (excitation): Sequential(
                (0): Conv2d(11110, 2778, kernel_size=(1, 1), stride=(1, 1))
                (1): ReLU()
                (2): Conv2d(2778, 11110, kernel_size=(1, 1), stride=(1, 1))
                (3): Sigmoid()
              )
            )
            (c): Conv2d(11110, 11110, kernel_size=(1, 1), stride=(1, 1), bias=False)
            (final_bn): BatchNorm2d(11110, eps=1e-05, momentum=0.1, affine=True, track_running_stats=True)
          )
          (relu): ReLU(inplace=True)
        )
      )
      (5): Sequential(
        (25): ResBottleneckBlock(
          (f): BottleneckTransform(
            (a): Sequential(
              (0): Conv2d(11110, 11110, kernel_size=(1, 1), stride=(1, 1), bias=False)
              (1): BatchNorm2d(11110, eps=1e-05, momentum=0.1, affine=True, track_running_stats=True)
              (2): ReLU(inplace=True)
            )
            (b): Sequential(
              (0): Conv2d(11110, 11110, kernel_size=(3, 3), stride=(1, 1), padding=(1, 1), groups=11, bias=False)
              (1): BatchNorm2d(11110, eps=1e-05, momentum=0.1, affine=True, track_running_stats=True)
              (2): ReLU(inplace=True)
            )
            (se): SqueezeAndExcitationLayer(
              (avgpool): AdaptiveAvgPool2d(output_size=(1, 1))
              (excitation): Sequential(
                (0): Conv2d(11110, 2778, kernel_size=(1, 1), stride=(1, 1))
                (1): ReLU()
                (2): Conv2d(2778, 11110, kernel_size=(1, 1), stride=(1, 1))
                (3): Sigmoid()
              )
            )
            (c): Conv2d(11110, 11110, kernel_size=(1, 1), stride=(1, 1), bias=False)
            (final_bn): BatchNorm2d(11110, eps=1e-05, momentum=0.1, affine=True, track_running_stats=True)
          )
          (relu): ReLU(inplace=True)
        )
        (26): ResBottleneckBlock(
          (f): BottleneckTransform(
            (a): Sequential(
              (0): Conv2d(11110, 11110, kernel_size=(1, 1), stride=(1, 1), bias=False)
              (1): BatchNorm2d(11110, eps=1e-05, momentum=0.1, affine=True, track_running_stats=True)
              (2): ReLU(inplace=True)
            )
            (b): Sequential(
              (0): Conv2d(11110, 11110, kernel_size=(3, 3), stride=(1, 1), padding=(1, 1), groups=11, bias=False)
              (1): BatchNorm2d(11110, eps=1e-05, momentum=0.1, affine=True, track_running_stats=True)
              (2): ReLU(inplace=True)
            )
            (se): SqueezeAndExcitationLayer(
              (avgpool): AdaptiveAvgPool2d(output_size=(1, 1))
              (excitation): Sequential(
                (0): Conv2d(11110, 2778, kernel_size=(1, 1), stride=(1, 1))
                (1): ReLU()
                (2): Conv2d(2778, 11110, kernel_size=(1, 1), stride=(1, 1))
                (3): Sigmoid()
              )
            )
            (c): Conv2d(11110, 11110, kernel_size=(1, 1), stride=(1, 1), bias=False)
            (final_bn): BatchNorm2d(11110, eps=1e-05, momentum=0.1, affine=True, track_running_stats=True)
          )
          (relu): ReLU(inplace=True)
        )
        (27): ResBottleneckBlock(
          (f): BottleneckTransform(
            (a): Sequential(
              (0): Conv2d(11110, 11110, kernel_size=(1, 1), stride=(1, 1), bias=False)
              (1): BatchNorm2d(11110, eps=1e-05, momentum=0.1, affine=True, track_running_stats=True)
              (2): ReLU(inplace=True)
            )
            (b): Sequential(
              (0): Conv2d(11110, 11110, kernel_size=(3, 3), stride=(1, 1), padding=(1, 1), groups=11, bias=False)
              (1): BatchNorm2d(11110, eps=1e-05, momentum=0.1, affine=True, track_running_stats=True)
              (2): ReLU(inplace=True)
            )
            (se): SqueezeAndExcitationLayer(
              (avgpool): AdaptiveAvgPool2d(output_size=(1, 1))
              (excitation): Sequential(
                (0): Conv2d(11110, 2778, kernel_size=(1, 1), stride=(1, 1))
                (1): ReLU()
                (2): Conv2d(2778, 11110, kernel_size=(1, 1), stride=(1, 1))
                (3): Sigmoid()
              )
            )
            (c): Conv2d(11110, 11110, kernel_size=(1, 1), stride=(1, 1), bias=False)
            (final_bn): BatchNorm2d(11110, eps=1e-05, momentum=0.1, affine=True, track_running_stats=True)
          )
          (relu): ReLU(inplace=True)
        )
        (28): ResBottleneckBlock(
          (f): BottleneckTransform(
            (a): Sequential(
              (0): Conv2d(11110, 11110, kernel_size=(1, 1), stride=(1, 1), bias=False)
              (1): BatchNorm2d(11110, eps=1e-05, momentum=0.1, affine=True, track_running_stats=True)
              (2): ReLU(inplace=True)
            )
            (b): Sequential(
              (0): Conv2d(11110, 11110, kernel_size=(3, 3), stride=(1, 1), padding=(1, 1), groups=11, bias=False)
              (1): BatchNorm2d(11110, eps=1e-05, momentum=0.1, affine=True, track_running_stats=True)
              (2): ReLU(inplace=True)
            )
            (se): SqueezeAndExcitationLayer(
              (avgpool): AdaptiveAvgPool2d(output_size=(1, 1))
              (excitation): Sequential(
                (0): Conv2d(11110, 2778, kernel_size=(1, 1), stride=(1, 1))
                (1): ReLU()
                (2): Conv2d(2778, 11110, kernel_size=(1, 1), stride=(1, 1))
                (3): Sigmoid()
              )
            )
            (c): Conv2d(11110, 11110, kernel_size=(1, 1), stride=(1, 1), bias=False)
            (final_bn): BatchNorm2d(11110, eps=1e-05, momentum=0.1, affine=True, track_running_stats=True)
          )
          (relu): ReLU(inplace=True)
        )
      )
      (6): Sequential(
        (29): ResBottleneckBlock(
          (proj): Conv2d(11110, 28280, kernel_size=(1, 1), stride=(2, 2), bias=False)
          (bn): BatchNorm2d(28280, eps=1e-05, momentum=0.1, affine=True, track_running_stats=True)
          (f): BottleneckTransform(
            (a): Sequential(
              (0): Conv2d(11110, 28280, kernel_size=(1, 1), stride=(1, 1), bias=False)
              (1): BatchNorm2d(28280, eps=1e-05, momentum=0.1, affine=True, track_running_stats=True)
              (2): ReLU(inplace=True)
            )
            (b): Sequential(
              (0): Conv2d(28280, 28280, kernel_size=(3, 3), stride=(2, 2), padding=(1, 1), groups=28, bias=False)
              (1): BatchNorm2d(28280, eps=1e-05, momentum=0.1, affine=True, track_running_stats=True)
              (2): ReLU(inplace=True)
            )
            (se): SqueezeAndExcitationLayer(
              (avgpool): AdaptiveAvgPool2d(output_size=(1, 1))
              (excitation): Sequential(
                (0): Conv2d(28280, 2778, kernel_size=(1, 1), stride=(1, 1))
                (1): ReLU()
                (2): Conv2d(2778, 28280, kernel_size=(1, 1), stride=(1, 1))
                (3): Sigmoid()
              )
            )
            (c): Conv2d(28280, 28280, kernel_size=(1, 1), stride=(1, 1), bias=False)
            (final_bn): BatchNorm2d(28280, eps=1e-05, momentum=0.1, affine=True, track_running_stats=True)
          )
          (relu): ReLU(inplace=True)
        )
      )
      (7): Sequential(
        (30): AdaptiveAvgPool2d(output_size=(1, 1))
        (31): Flatten()
        (32): MLP(
          (clf): Sequential(
            (0): Linear(in_features=28280, out_features=1000, bias=True)
          )
        )
      )
    )
  )
)
INFO 2020-12-09 22:28:18,261 trainer_main.py: 104: Loss is: CrossEntropyMultipleOutputSingleTargetLoss(
  (_losses): ModuleList()
)
INFO 2020-12-09 22:28:18,261 trainer_main.py: 105: Starting training....
INFO 2020-12-09 22:28:18,261 __init__.py:  52: Distributed Sampler config:
{'num_replicas': 1, 'rank': 0, 'epoch': 0, 'num_samples': 1281167, 'total_size': 1281167, 'shuffle': True}
…
